TankProject/Content/best_model_state_dict.pt (torch, 61839 bytes, 8 tensors)

item_embeddings.weight f4 [16, 1]
0.6454326 -0.49706662 -0.44443512 0.9893336 -0.03784311 0.8369584 -0.40998423 -0.31277335
-0.14402568 0.7675581 0.7696985 -0.6112957 -0.57164526 0.79595315 -0.52557397 0.62805617
00000000: 123b 253f 847f febe 008d e3be f844 7d3f
00000010: 6001 1bbd e842 563f 74e9 d1be d423 a0be
00000020: 787b 13be b07e 443f f60a 453f e07d 1cbf
00000030: 5857 12bf 96c3 4b3f 048c 06bf 4ac8 203f

item_embeddings.bias f4 [16]
0.563426 -0.66988933 -0.68916905 0.61181366 0.12465775 0.519734 0.029946923 -0.37168348
-0.59043646 0.8692528 0.14787567 0.44552112 0.49122715 0.6046208 -0.24319863 -0.5965414
00000000: b03c 103f de7d 2bbf 626d 30bf d29f 1c3f
00000010: 904c ff3d 4a0d 053f 4053 f53c 4c4d bebe
00000020: d826 17bf 5a87 5e3f b86c 173e 581b e43e
00000030: 2082 fb3e 6ec8 1a3f 1009 79be f0b6 18bf

lstm.weight_ih_l0 f4 [128, 16]
-0.10046831 -0.13158973 0.010003575 0.104341835 -0.108748496 0.053694326 -0.10488907 -0.06808079
0.16664073 0.1472749 -0.07701822 0.07513114 -0.06163395 -0.05000285 -0.10559473 0.113989666
-0.09930733 0.09278846 -0.0913181 -0.12105165 -0.05020425 0.061186116 -0.02873631 -0.019060448
0.00053486455 -0.09429546 -0.031831913 0.11867292 0.13430037 -0.06211246 0.12080587 0.018945176
0.13743746 -0.015120982 -0.08964755 -0.036004703 -0.12285376 0.08666125 0.04670073 0.00022618106
-0.14570132 -0.15042254 -0.035895586 -0.006713424 -0.074990496 0.11972234 -0.0045688027 0.1448179
-0.17578034 0.15550627 -0.028905299 0.105610326 0.05098228 0.043029845 0.04551257 0.06790007
0.025028527 -0.05946191 -0.06976848 0.17133602 0.010052255 0.10930547 0.1262302 -0.07622009
0.17590874 -0.01317247 0.16662307 0.06063608 -0.028768027 0.15762681 0.1420536 -0.11130118
0.07647312 -0.020309618 -0.1275946 0.08102403 -0.0056088604 -0.16041356 0.052630898 -0.124071345
0.0816705 -0.07949806 0.030293785 -0.1267264 0.024436405 0.033082347 0.12439326 -0.054431558
0.04172184 0.14395343 -0.05090981 0.17464346 -0.13147971 0.100240946 -0.11432554 0.17378712
-0.012629619 -0.054489933 0.17176038 0.05512165 -0.094293565 0.05445573 0.14313194 -0.033363823
-0.17392482 -0.041497175 0.10642856 -0.1661119 0.009944422 0.020386767 0.11628973 -0.03322984
-0.03361249 -0.106085196 0.046735585 0.0027966963 0.07717834 0.14715332 0.07686904 -0.17344193
0.05869821 0.13381745 0.039700054 -0.020078106 0.059941962 0.020648394 -0.08183634 -0.042799745
0.13607727 0.011494815 0.07820594 -0.1602549 0.10559292 -0.16347928 0.14687957 0.080397725
-0.09073412 0.1426663 -0.07073276 -0.0058815293 0.072372414 0.11909102 0.0059751584 0.018579237
0.026979757 0.013790533 0.018781668 0.11832793 0.012476162 -0.13741922 -0.14541483 -0.17142636
0.097961746 -0.04094031 0.07566895 0.015936144 -0.07324119 -0.086454526 0.068314895 -0.10861742
0.14309025 0.0027711764 -0.0075686886 -0.060554948 -0.050363902 0.11834213 -0.09337371 0.037154827
0.10939649 0.13127688 0.09508436 -0.06376683 0.051099364 0.08793799 -0.02630488 -0.14119598
0.14396243 0.011710923 -0.08676422 0.17195724 -0.016877389 -0.10960751 0.046999782 0.032748733
0.14650379 -0.067631274 -0.033200357 0.15868996 -0.12469695 -0.022605525 0.061031986 -0.13460547
0.0037836912 0.073354 -0.013764844 0.039022166 0.10717309 -0.074222766 0.091057636 0.11926323
-0.09701016 -0.13849464 -0.015575157 0.093418404 -0.1293023 0.06333242 -0.14893335 -0.050580073
0.077428125 -0.15248978 0.10790242 -0.0015373484 0.012487774 0.13973182 0.07696582 -0.1645478
-0.13040935 0.03186698 -0.155302 -0.16465314 -0.0039659343 0.17482689 -0.1395256 0.13614762
-0.13322486 0.15193583 -0.048416864 0.07822596 -0.12613648 -0.15338907 0.053303707 0.00022624427
0.05648868 0.16155732 -0.059640255 -0.022675678 -0.122049555 0.17086574 -0.010647432 -0.17475107
-0.06790875 -0.119983226 0.02436486 0.03132438 -0.11229779 -0.06703309 -0.15264265 0.107130565
0.1748289 -0.116961926 -0.1352343 0.060167216 -0.110004604 -0.16104938 0.12944509 0.1261835
00000000: 54c2 cdbd 75bf 06be 09e6 233c 2cb1 d53d
00000010: 88b7 debd 95ee 5b3d 15d0 d6bd f16d 8bbd
00000020: dea3 2a3e 3bcf 163e bbbb 9dbd 5bde 993d
00000030: e173 7cbd cacf 4cbd 0d42 d8bd 6a73 e93d
00000040: a461 cbbd e007 be3d fc04 bbbd ede9 f7bd
00000050: f9a2 4dbd 4b9e 7a3d 6968 ebbc a824 9cbc
00000060: 2736 0c3a fa1d c1bd 2e62 02bd ca0a f33d
00000070: 0986 093e a369 7ebd 1169 f73d ea32 9b3c
00000080: 68bc 0c3e ffbd 77bc 2299 b7bd ab79 13bd
00000090: c19a fbbd 747b b13d 4449 3f3d 042b 6d39
000000a0: ba32 15be 5e08 1abe 4007 13bd 48fc dbbb
000000b0: 9e94 99bd fc30 f53d e5b5 95bb 254b 143e
000000c0: c3ff 33be 093d 1f3e ceca ecbc 3a4a d83d
000000d0: ccd2 503d 1040 303d 636b 3a3d 310f 8b3d
000000e0: a008 cd3c 558e 73bd c7e2 8ebd b672 2f3e
000000f0: 37b2 243c 8cdb df3d 7d42 013e 4719 9cbd
00000100: 6c21 343e 58d1 57bc 3d9f 2a3e 8a5d 783d
00000110: edaa ebbc ec68 213e 8076 113e e0f1 e3bd
00000120: f09d 9c3d 5b60 a6bc 29a8 02be edef a53d
00000130: 88ca b7bb 7443 24be 7f93 573d 1e19 febd
00000140: dd42 a73d e1cf a2bd ac2a f83c 91c4 01be
00000150: db2e c83c 5b81 073d e5c1 fe3d a0f3 5ebd
00000160: 85e4 2a3d 8768 133e ce86 50bd bcd5 323e
00000170: 9ea2 06be 204b cd3d 8223 eabd 40f5 313e
00000180: 76ec 4ebc d630 5fbd f4e1 2f3e 3dc7 613d
00000190: fc1c c1bd f90c 5f3d 2e91 123e 81a8 08bd
000001a0: 5919 32be f1f8 29bd 38f7 d93d 3d19 2abe
000001b0: eeed 223c 2602 a73c 4f29 ee3d 031c 08bd
000001c0: 40ad 09bd 3243 d9bd d06d 3f3d c748 373b
000001d0: ad0f 9e3d 5caf 163e 846d 9d3d c39a 31be
000001e0: 896d 703d 7107 093e 869c 223d d77a a4bc
000001f0: b485 753d d226 a93c d099 a7bd c94e 2fbd
00000200: d757 0b3e c054 3c3c 702a a03d dc19 24be
00000210: 1a41 d83d 1d67 27be 9967 163e 90a7 a43d
00000220: cfd2 b9bd 1d17 123e 56dc 90bd d8b9 c0bb
00000230: fd37 943d fee5 f33d 43cb c33b 7c33 983c
00000240: a704 dd3c b0f1 613c 03dc 993c ea55 f23d
00000250: d168 4c3c a0b7 0cbe a0e7 14be 648a 2fbe
00000260: 2ba0 c83d 07b1 27bd 53f8 9a3d 848c 823c
00000270: 7aff 95bd 120f b1bd aee8 8b3d cf72 debd
00000280: 4086 123e a09c 353b c302 f8bb 7708 78bd
00000290: 614a 4ebd 5c5d f23d b73a bfbd a92f 183d
000002a0: 440b e03d 726d 063e 97bb c23d 2f98 82bd
000002b0: 914d 513d d518 b43d 557d d7bc ae95 10be
000002c0: e36a 133e 2cdf 3f3c 70b1 b1bd 8f15 303e
000002d0: 7342 8abc e779 e0bd d882 403d 8923 063d
000002e0: 1705 163e 4482 8abd 19fd 07bd 9f7f 223e
000002f0: 1d61 ffbd 392f b9bc adfc 793d 04d6 09be
00000300: cef7 773b 9f3a 963d f185 61bc b5d5 1f3d
00000310: 917d db3d 1b02 98bd 6d7c ba3d 4840 f43d
00000320: 43ad c6bd 8ad1 0dbe f12e 7fbc 2652 bf3d
00000330: d267 04be 6eb4 813d fc81 18be 0d2d 4fbd
00000340: a392 9e3d 4826 1cbe f2fb dc3d da80 c9ba
00000350: 8599 4c3c dc15 0f3e 41a0 9d3d 387f 28be
00000360: 078a 05be f386 023d 7d07 1fbe d59a 28be
00000370: abf4 81bb d205 333e cddf 0ebe 486a 0b3e
00000380: 196c 08be 1195 1b3e c350 46bd ef34 a03d
00000390: ec29 01be 0612 1dbe fd54 5a3d fc3b 6d39
000003a0: ad60 673d 486f 253e 5749 74bd 58c2 b9bc
000003b0: 1ef5 f9bd 6ef7 2e3e 9172 2ebc f2f1 32be
000003c0: be13 8bbd c4b9 f5bd d198 c73c fe4d 003d
000003d0: 62fc e5bd a548 89bd 5b4e 1cbe 4567 db3d
000003e0: 5906 333e bc89 efbd dc7a 0abe e671 763d
000003f0: 184a e1bd 21ea 24be 418d 043e 3f36 013e

lstm.weight_hh_l0 f4 [128, 32]
-0.06393523 -0.044384234 -0.08132496 0.17423275 0.023195265 0.101444386 -0.041110836 0.10160155
-0.025684373 -0.009813662 0.09839327 -0.0563622 -0.17295572 0.026710924 -0.10769767 0.10307511
0.041838102 -0.05856488 -0.05275719 0.16429493 0.14247596 -0.14980547 0.037658125 0.0142128235
-0.061032113 -0.0034020725 0.026258435 0.014911977 -0.14935847 -0.07267577 0.1727142 0.062557995
0.136966 0.039314643 0.10523383 0.10735576 0.10276329 0.17086418 0.07233326 0.06643877
-0.07863875 -0.10518395 -0.07732651 0.017803924 -0.09505513 0.034823727 -0.08021361 0.029963944
-0.001577409 0.0877776 -0.07424203 0.010897784 -0.098944955 -0.06449852 0.06534133 0.17418265
0.066100165 -0.016692238 0.085703574 -0.16278292 -0.056931246 0.02073943 -0.025546279 -0.15321925
0.11952932 -0.01882371 0.020659922 0.17547813 -0.07787115 -0.17335439 0.052469097 0.052711207
-0.13070907 0.022256128 0.10598149 0.027160736 0.07899487 0.023556294 -0.15579669 -0.037857015
0.04684321 0.14176588 0.050704848 0.00570485 -0.116690986 0.089120224 0.015668744 -0.1476571
0.028621798 0.04194859 -0.14553505 0.07906938 -0.10287491 0.013448933 0.16079885 -0.16389069
0.10172253 0.044314966 0.013967149 0.16256769 -0.041252363 -0.1171467 -0.036816746 0.025541516
-0.057136733 0.043495398 0.01751878 -0.17653549 -0.0365732 -0.01593349 -0.07423746 0.034765165
0.1728665 0.16979189 -0.14391705 -0.10716622 -0.07782784 0.054870687 -0.03739561 0.1126619
0.105926365 0.02200902 0.089846015 -0.070702836 -0.064313054 -0.14155672 -0.038554776 -0.074376605
-0.04062933 0.1638248 0.1737474 0.039384797 -0.0083243605 -0.0029707416 -0.06504605 -0.13487056
-0.05800696 0.12230179 0.15654011 0.1341631 -0.061300546 -0.108784996 -0.14637914 0.097422816
-0.0045457273 -0.037318528 -0.096013024 -0.037150677 0.11814259 -0.09338627 0.11732825 0.051561274
-0.13013901 0.039645053 0.14525793 -0.12541406 -0.15297167 -0.06666268 0.030299686 0.13638796
0.15065423 -0.09359148 -0.07927344 -0.031035822 -0.1501996 -0.03489778 0.1331773 -0.15715498
0.17571874 -0.075763024 0.14308113 0.07307892 -0.068566956 0.008440138 0.16698483 0.08557766
0.13344303 -0.15487973 -0.13689643 -0.16127926 0.10533182 -0.0064059836 0.118084215 -0.11620847
0.04530356 0.0428589 -0.06728144 -0.05312275 -0.116032735 0.12173127 -0.16181397 -0.16947196
0.0021188064 0.058164716 -0.16108769 -0.059418395 -0.0032580146 -0.17202152 0.16277774 -0.16250065
-0.114402264 -0.03423403 0.0016760959 0.08855533 -0.08436764 0.045631044 -0.007463448 -0.13057627
0.09096883 0.08163271 0.12095037 0.1488721 0.022638947 0.15122889 0.06970838 -0.098679826
-0.043422487 0.048864275 0.094487816 -0.15029652 0.05103549 0.029860536 -0.039528076 -0.08747152
0.05083951 -0.07684485 -0.046158385 0.062245585 -0.07096819 -0.11557201 0.03456467 0.057847623
0.14818962 0.013450345 0.05095575 0.092048824 -0.018446032 -0.10678439 0.1110585 0.14810187
0.17163157 0.022466313 -0.071184196 0.03472565 -0.15947272 -0.08319638 -0.0931977 0.11469251
0.16137588 0.047301155 0.03719179 0.10480201 -0.08642068 -0.17141017 -0.07148969 -0.05614548
00000000: 79f0 82bd 3ecc 35bd b38d a6bd 126a 323e
00000010: ff03 be3c 13c2 cf3d d663 28bd 7914 d03d
00000020: 0968 d2bc 7bc9 20bc 6982 c93d 0ddc 66bd
00000030: 4e1b 31be ded0 da3c 9990 dcbd 0b19 d33d
00000040: 6e5e 2b3d bae1 6fbd ec17 58bd ee3c 283e
00000050: 38e5 113e 9b66 19be 683f 1a3d e7dc 683c
00000060: cffc 79bd 4ef5 5ebb ee1b d73c 5d51 743c
00000070: 6df1 18be 09d7 94bd fedb 303e 681e 803d
00000080: d140 0c3e 6408 213d d684 d73d 56dd db3d
00000090: 8f75 d23d 05f7 2e3e 7623 943d 0d11 883d
000000a0: 5a0d a1bd af6a d7bd 5c5d 9ebd 89d9 913c
000000b0: 44ac c2bd 53a3 0e3d 0847 a4bd f276 f53c
000000c0: 10c1 ceba bec4 b33d 350c 98bd 9e8c 323c
000000d0: a7a3 cabd cd17 84bd add1 853d f05c 323e
000000e0: 865f 873d 29be 88bc 5b85 af3d 91b0 26be
000000f0: bd30 69bd bde5 a93c 6e46 d1bc 82e5 1cbe
00000100: cacb f43d 2e34 9abc ff3e a93c 8ab0 333e
00000110: e97a 9fbd d083 31be d6e9 563d b5e7 573d
00000120: 99d8 05be 7c52 b63c d30c d93d 3180 de3c
00000130: 10c8 a13d 21f9 c03c 2b89 1fbe f50f 1bbd
00000140: aade 3f3d 132b 113e e3af 4f3d c0ef ba3b
00000150: affb eebd aa84 b63d bd5b 803c 6c33 17be
00000160: 4378 ea3c 49d2 2b3d 2407 15be 21ef a13d
00000170: 15b0 d2bd ea58 5c3c 74a8 243e f6d2 27be
00000180: e753 d03d 9c83 353d 78d6 643c 2578 263e
00000190: 3df8 28bd 9cea efbd 28cd 16bd 713c d13c
000001a0: 3508 6abd 3b28 323d 8b83 8f3c b8c5 34be
000001b0: c8cd 15bd f386 82bc cf09 98bd eb65 0e3d
000001c0: ea03 313e eddd 2d3e fe5e 13be f779 dbbd
000001d0: 3464 9fbd 16c0 603d 242c 19bd 48bb e63d
000001e0: ecef d83d 434c b43c 3001 b83d a6cc 90bd
000001f0: 90b6 83bd 3ff4 10be 9deb 1dbd c352 98bd
00000200: f16a 26bd b0c1 273e d7ea 313e f451 213d
00000210: e662 08bc c6b0 42bb dd36 85bd 821b 0abe
00000220: b598 6dbd 5c79 fa3d 0d4c 203e 0d62 093e
00000230: 4816 7bbd abca debd 6ae4 15be 9d85 c73d
00000240: 53f4 94bb 50db 18bd 7aa2 c4bd 4f2b 18bd
00000250: bef4 f13d 4d41 bfbd cb49 f03d ea31 533d
00000260: 2943 05be da62 223d 7fbe 143e 8b6c 00be
00000270: 9ba4 1cbe 7186 88bd 0c37 f83c 49a9 0b3e
00000280: 1a45 1a3e e4ac bfbd 1d5a a2bd d63e febc
00000290: edcd 19be f9f0 0ebd a15f 083e 3ced 20be
000002a0: 9def 333e a529 9bbd dc83 123e 67aa 953d
000002b0: d56c 8cbd 8148 0a3c 12fe 2a3e 5743 af3d
000002c0: 4aa5 083e cb98 1ebe 942e 0cbe 6426 25be
000002d0: 36b8 d73d 49e9 d1bb 23d6 f13d b5fe edbd
000002e0: 3a90 393d d08c 2f3d daca 89bd 3e97 59bd
000002f0: 92a2 edbd 3e4e f93d 90b2 25be 0f8a 2dbe
00000300: acdb 0a3b 203e 6e3d 2cf4 24be b460 73bd
00000310: 6a84 55bb 6926 30be 35af 263e 9266 26be
00000320: bc4b eabd fb38 0cbd 72b0 db3a 7f5c b53d
00000330: f1c8 acbd 9ee7 3a3d f18f f4bb c9b5 05be
00000340: de4d ba3d 0d2f a73d d4b4 f73d ee71 183e
00000350: 5075 b93c bfdb 1a3e 44c3 8e3d a618 cabd
00000360: c7db 31bd e825 483d d482 c13d 55e7 19be
00000370: 970a 513d 159e f43c 31e8 21bd 4524 b3bd
00000380: 173d 503d d560 9dbd 9310 3dbd 3af5 7e3d
00000390: c557 91bd 05b1 ecbd af93 0d3d a1f1 6c3d
000003a0: 05bf 173e d65e 5c3c fab6 503d 1884 bc3d
000003b0: 221c 97bc c6b1 dabd a472 e33d 04a8 173e
000003c0: 30c0 2f3e 460b b83c 05c9 91bd 7c3c 0e3d
000003d0: d14c 23be dd62 aabd 70de bebd e8e3 ea3d
000003e0: b83f 253e dbbe 413d 6b56 183d 70a2 d63d
000003f0: 53fd b0bd 2686 2fbe 3069 92bd cef8 65bd

lstm.bias_ih_l0 f4 [128]
0.11343335 0.13584915 -0.044329423 0.16419654 -0.045426253 0.058764655 -0.14804389 0.043701034
0.14304794 0.16958022 0.112026006 -0.16841978 -0.004599085 -0.05015532 -0.026587222 0.0929283
-0.02956475 0.076756895 -0.11432183 0.061967332 -0.02105844 0.11753371 -0.08361709 -0.06553972
0.11077372 0.09136155 0.10702159 -0.057326034 -0.019770622 -0.09694707 0.079796165 0.081594445
0.13443157 0.13286214 -0.052766696 -0.11426988 0.12049746 -0.086935505 -0.12183088 -0.16186294
-0.06418019 0.0064890343 -0.11486337 0.10960229 -0.15382369 -0.061982628 0.05517623 0.17244588
0.06501031 -0.14743307 -0.035521448 -0.0009156192 -0.073951006 0.14463589 -0.10153028 -0.12094826
0.17373234 0.010456718 -0.11820212 0.10056012 0.067434095 0.09426507 0.15861084 -0.07882055
0.1548438 -0.00032189654 0.09168392 -0.023299895 -0.110164694 -0.08535226 -0.04342145 -0.106319174
0.08012683 -0.04426521 0.083402164 0.12314582 0.032392804 -0.011394063 -0.081993006 -0.012067422
0.044507135 0.08719074 0.15989204 -0.04854377 0.08865775 -0.07842245 -0.0774442 -0.06147617
0.14795941 0.14953588 0.033953816 -0.15490353 0.0034096169 0.02368579 0.08305066 0.16391832
-0.09409682 0.122103654 0.10760242 -0.058623083 -0.008972558 -0.0016990027 0.016465846 -0.13315047
0.08198873 -0.16622838 0.09629088 -0.024020815 0.0018874413 -0.17480312 -0.018876078 0.11394748
0.0975956 -0.02702654 -0.062498886 -0.039525483 -0.11072485 -0.13996366 0.016762603 0.11718623
-0.08235749 -0.04540545 -0.12953211 -0.06882534 0.010426182 0.113507554 -0.07544273 -0.09028078
00000000: bf4f e83d 0a1c 0b3e c592 35bd 2323 283e
00000010: e110 3abd 35b3 703d d198 17be dbff 323d
00000020: 297b 123e 70a6 2d3e e46d e53d 3c76 2cbe
00000030: ecb3 96bb aa6f 4dbd 72cd d9bc 3151 be3d
00000040: c631 f2bc b832 9d3d 9021 eabd 75d1 7d3d
00000050: c082 acbc 84b5 f03d 703f abbd b039 86bd
00000060: 55dd e23d c41b bb3d 232e db3d b4ce 6abd
00000070: 00f6 a1bc 2f8c c6bd 2c6c a33d fd1a a73d
00000080: 6ea8 093e 030d 083e e421 58bd 5406 eabd
00000090: 5fc7 f63d 3e0b b2bd 7882 f9bd 66bf 25be
000000a0: e770 83bd f7a1 d43b 7d3d ebbd 2a77 e03d
000000b0: f583 1dbe 7fe1 7dbd 7800 623d a795 303e
000000c0: 2024 853d b2f8 16be f07e 11bd 2a06 70ba
000000d0: a073 97bd 6e1b 143e 1cef cfbd b9b3 f7bd
000000e0: e4e6 313e a752 2b3c f413 f2bd 77f2 cd3d
000000f0: e31a 8a3d 0c0e c13d e16a 223e ab6c a1bd
00000100: 608f 1e3e 39c4 a8b9 c7c4 bb3d 6cdf bebc
00000110: 079e e1bd 2acd aebd b1da 31bd debd d9bd
00000120: 8919 a43d 704f 35bd c1ce aa3d e033 fc3d
00000130: 51ae 043d 2aae 3abc f3eb a7bd 70b6 45bc
00000140: 1d4d 363d 0f91 b23d bdba 233e d5d5 46bd
00000150: 3292 b53d f39b a0bd 119b 9ebd 70ce 7bbd
00000160: ac82 173e ef1f 193e 2813 0b3d 089f 1ebe
00000170: e173 5f3b b408 c23c 7716 aa3d 34da 273e
00000180: d5b5 c0bd 7b11 fa3d a85e dc3d c21e 70bd
00000190: a301 13bc 12b1 deba 62e3 863c 9958 08be
000001a0: b5e9 a73d c637 2abe 2734 c53d 4dc7 c4bc
000001b0: 0564 f73a 97ff 32be 01a2 9abc 4c5d e93d
000001c0: 34e0 c73d c366 ddbc d5fe 7fbd 79e5 21bd
000001d0: b6c3 e2bd a252 0fbe ba51 893c 56ff ef3d
000001e0: 0bab a8bd 11fb 39bd 11a4 04be 4df4 8cbd
000001f0: 94d2 2a3c a676 e83d b881 9abd 21e5 b8bd

lstm.bias_hh_l0 f4 [128]
0.04605635 0.05734007 -0.00022036479 -0.0026277506 0.040433366 -0.13516027 -0.006590987 0.095866606
0.12223968 0.09962339 -0.09222002 0.075384736 -0.010737584 -0.11178282 -0.03664262 0.072950125
0.14943366 0.11642712 -0.0731279 0.13280122 -0.0006828211 -0.036151268 0.12417673 0.17131911
-0.064163834 -0.0870411 -0.016967267 -0.07483186 0.08043283 -0.16503808 0.12292695 -0.042206
-0.11388133 0.014326472 0.03497185 0.044339918 -0.0039480217 -0.0447071 0.027944267 0.10982309
0.17567766 -0.06633124 -0.0830856 0.074256994 0.003991559 0.14761649 -0.035309743 0.017163187
0.06299422 -0.07987726 -0.17071433 0.032821205 -0.12804155 -0.105676666 -0.049405355 -0.022037111
0.13576733 0.15513694 0.0037160034 0.14627282 0.051793672 -0.02505609 -0.061892584 -0.04756156
-0.0019842105 0.07190737 0.056011032 -0.104313135 0.012137112 0.13829887 -0.06529078 0.122334346
-0.16694227 -0.09447265 -0.16048363 -0.0686566 -0.16917539 -0.003218249 0.0010700874 0.022789497
0.10726198 0.047381084 -0.11898561 -0.14242701 0.011647703 0.034194876 -0.027433151 0.003217427
0.003347935 -0.033290192 0.14445606 -0.009535978 0.007875159 -0.049831692 0.018316682 0.11924593
-0.074980445 0.010770584 0.018443523 0.080522604 0.053148396 -0.1406627 0.03229515 -0.11906217
-0.14598237 -0.040046524 0.14638981 -0.17367782 0.14875284 0.09414596 -0.028969236 0.056653686
-0.13153334 -0.08846921 -0.11652057 -0.1537782 0.12063473 0.01584064 -0.16640043 -0.1612828
-0.11229349 -0.1058426 0.094967216 0.07121222 0.021740694 0.15314144 0.09602169 -0.11667373
00000000: 95a5 3c3d 6cdd 6a3d b911 67b9 5736 2cbb
00000010: 759d 253d 7467 0abe 35f9 d7bb b655 c43d
00000020: cc58 fa3d 5907 cc3d dadd bcbd 5063 9a3d
00000030: b1ec 2fbc 64ee e4bd 9216 16bd e066 953d
00000040: 2305 193e 5871 ee3d 15c4 95bd 0bfd 073e
00000050: 59ff 32ba 5a13 14bd 5f50 fe3d 476e 2f3e
00000060: 5468 83bd 9b42 b2bd f0fe 8abc 7241 99bd
00000070: f8b9 a43d beff 28be 20c1 fb3d 33e0 2cbd
00000080: 9d3a e9bd 94b9 6a3c a53e 0f3d c69d 353d
00000090: 685e 81bb cb1e 37bd 60eb e43c eeea e03d
000000a0: d8e4 333e acd8 87bd c828 aabd 0d14 983d
000000b0: a0cb 823b c728 173e f3a0 10bd d099 8c3c
000000c0: 1d03 813d b096 a3bd bdcf 2ebe 876f 063d
000000d0: 531d 03be 026d d8bd 455d 4abd 2c87 b4bc
000000e0: 9706 0b3e 38dc 1e3e 3188 733b 8bc8 153e
000000f0: 9a25 543d 6e42 cdbc 1483 7dbd e9cf 42bd
00000100: 8709 02bb 2c44 933d d36b 653d 20a2 d5bd
00000110: bdda 463c 389e 0d3e 2cb7 85bd 6e8a fa3d
00000120: eaf2 2abe e07a c1bd d255 24be d59b 8cbd
00000130: 503c 2dbe 42e9 52bb 2d42 8c3a 0ab1 ba3c
00000140: 2bac db3d ab12 423d baae f3bd 63d8 11be
00000150: 02d6 3e3c ed0f 0c3d 7dbb e0bc 78db 523b
00000160: 0769 5b3b 4c5b 08bd 4aec 133e ca3c 1cbc
00000170: d006 013c 511c 4cbd de0c 963c 3637 f43d
00000180: 598f 99bd 1b77 303c df16 973c 09e9 a43d
00000190: 22b2 593d e209 10be eb47 043d ded6 f3bd
000001a0: 677c 15be d307 24bd 36e7 153e 99d8 31be
000001b0: aa52 183e 99cf c03d e450 edbc b20d 683d
000001c0: adb0 06be 582f b5bd 56a2 eebd 0878 1dbe
000001d0: 570f f73d 3bc4 813c e064 2abe 5127 25be
000001e0: 21fa e5bd 01c4 d8bd 2c7e c23d b6d7 913d
000001f0: 8a19 b23c 1cd1 1c3e 05a7 c43d a3f2 eebd

linear.weight f4 [256, 32]
-0.0021323354 0.07218912 0.14345525 -0.16931713 0.106801294 -0.1400113 -0.0246872 0.12225155
-0.060798533 0.044795103 -0.16360354 0.040151764 0.078162596 -0.04892539 0.0035463201 0.10147943
-0.032938775 -0.16178614 -0.1601769 0.08923769 -0.13937147 0.060695127 -0.015921203 0.05598311
0.04783484 -0.079381146 -0.1427649 0.037368134 0.15378839 0.026390629 -0.1091325 0.118950926
-0.15080884 -0.042544905 -0.15431215 0.105704695 -0.14616022 -0.08948787 -0.17502597 -0.059047356
0.13709228 -0.0147883175 0.035745393 -0.107619636 -0.09778471 -0.16774926 0.08560691 0.07640733
0.10668798 0.080595165 -0.12655212 0.013775128 0.032519728 -0.07965594 0.035074756 0.026172182
-0.01633422 -0.052815817 -0.16130105 0.026274893 0.10649739 0.14764093 -0.12105936 0.057045527
0.04522989 0.051093042 -0.12458138 0.006116772 0.1732103 -0.06645019 0.17189284 0.17404437
0.12707926 -0.023459462 -0.1276014 -0.13142064 -0.15543208 0.14668958 0.05761923 0.017863266
0.085268825 0.043660488 -0.11921643 -0.016920801 0.105718665 -0.0955692 0.15875527 -0.123355456
0.08167981 0.088280156 -0.053620886 0.00050024095 -0.049050145 0.08517349 0.08282003 -0.05697217
0.0013484041 0.14288017 0.036864877 0.0074598235 -0.17318422 0.060759466 0.025640626 -0.010733622
0.08214589 -0.0908603 -0.098421216 -0.13192418 0.04261491 0.013412012 -0.13968477 0.022763954
-0.15629682 0.03998419 -0.15202115 0.062718496 0.09114955 -0.08867994 -0.09116439 0.0695286
0.1240716 -0.08752718 0.1160064 0.085494526 -0.13746814 -0.06940513 -0.00090630475 -0.16078508
0.080789715 0.06139506 0.05863834 -0.05743119 -0.062196735 0.040389154 -0.011352127 -0.17107867
0.1763914 -0.011614365 0.13571486 0.14285387 -0.1469881 -0.08008059 -0.097171746 -0.1534536
0.05153533 -0.16654812 0.11938213 0.099847086 0.13069852 -0.04829093 0.07975494 -0.017588597
-0.06853436 0.16779819 -0.08896087 -0.10654428 -0.049462065 0.15145603 0.15289776 0.09615934
-0.018192098 -0.15015773 -0.16276316 -0.117137596 0.1675049 0.09445749 0.15877944 0.091810584
-0.08519045 0.10711411 0.10945825 0.114523605 -0.015526098 -0.11175203 0.15776081 0.12396802
0.0706464 -0.09953267 -0.0108993435 0.115677126 -0.08226428 0.117457576 -0.07290589 0.05198689
-0.17468163 0.14711984 -0.13617875 -0.15551443 0.046881918 -0.063223325 0.0059442017 0.055338874
0.13639215 -0.14206503 -0.15974002 0.10573818 -0.02573594 0.027573058 -0.13711594 0.10080409
-0.1744708 -0.15933135 -0.052637957 0.14540747 0.03880532 0.14383307 -0.07790779 0.14117393
-0.15279168 -0.09548518 0.03729564 -0.12043786 -0.02481796 -0.17485058 0.17181481 0.09337569
-0.13488163 -0.06594184 -0.06346902 0.11549364 0.11006232 -0.1470827 -0.05649823 -0.16381839
-0.1044657 -0.07834448 -0.13721849 -0.081436895 -0.041672125 0.13569427 -0.16438408 -0.040196378
0.066818625 -0.12339345 0.049110603 -0.009131052 0.056071956 -0.07937196 0.123016514 -0.14380899
-0.094026476 0.11044851 0.110977605 -0.012870088 -0.066540115 -0.10031599 0.037502624 0.012349637
0.011793425 0.06369341 -0.06951798 0.06985454 -0.04308259 -0.05538791 -0.12078323 -0.16934063
00000000: a7be 0bbb e4d7 933d efe5 123e 7861 2dbe
00000010: a3ba da3d 1f5f 0fbe d03c cabc 055f fa3d
00000020: e207 79bd 127b 373d b087 27be 2d76 243d
00000030: b613 a03d fd65 48bd 6169 683b 73d4 cf3d
00000040: cfea 06bd 44ab 25be 6a05 24be 40c2 b63d
00000050: 65b7 0ebe 749b 783d 2f6d 82bc 8c4e 653d
00000060: 77ee 433d 9592 a2bd f630 12be 540f 193d
00000070: b47a 1d3e 2931 d83c dc80 dfbd 8b9c f33d
00000080: a26d 1abe 9143 2ebd 0104 1ebe b47b d83d
00000090: 06ab 15be 6b45 b7bd 023a 33be a4db 71bd
000000a0: eb61 0c3e b34a 72bc c369 123d af67 dcbd
000000b0: 5a43 c8bd 76c6 2bbe ad52 af3d 727b 9c3d
000000c0: 3a7f da3d 140f a53d e196 01be 13b1 613c
000000d0: 6833 053d a722 a3bd 8caa 0f3d 0b67 d63c
000000e0: 58cf 85bc 6655 58bd 1a2c 25be 723e d73c
000000f0: 4e1b da3d 2f2f 173e f8ed f7bd 92a8 693d
00000100: fa42 393d f046 513d 8624 ffbd 346f c83b
00000110: 0a5e 313e 0a17 88bd ad04 303e b038 323e
00000120: 1121 023e 0f2e c0bc f1a9 02be 2293 06be
00000130: 9629 1fbe cb35 163e 2402 6c3d fc55 923c
00000140: 6ca1 ae3d 57d5 323d be27 f4bd 7e9d 8abc
00000150: 0783 d83d c9b9 c3bd be90 223e c9a1 fcbd
00000160: bf47 a73d 3acc b43d 93a1 5bbd 9a22 033a
00000170: cee8 48bd 706f ae3d 8c9d a93d a65b 69bd
00000180: efbc b03a 2e4f 123e a0ff 163d 8971 f43b
00000190: 3457 31be ebde 783d 4a0c d23c 13dc 2fbc
000001a0: 1b3c a83d f714 babd 1091 c9bd 2217 07be
000001b0: f98c 2e3d 0ebe 5b3c 8609 0fbe 797b ba3c
000001c0: 460c 20be 76c6 233d 6fab 1bbe 8e72 803d
000001d0: 9eac ba3d d49d b5bd 65b4 babd 0365 8e3d
000001e0: 4019 fe3d 7341 b3bd c394 ed3d c117 af3d
000001f0: 73c4 0cbe 4724 8ebd 1595 6dba d8a4 24be
00000200: 1475 a53d 6379 7b3d c22e 703d f83c 6bbd
00000210: 01c2 7ebd 196f 253d 46fe 39bc 3f2f 2fbe
00000220: f29f 343e 2d4a 3ebc d6f8 0a3e 4948 123e
00000230: 0c84 16be 4b01 a4bd fb01 c7bd f122 1dbe
00000240: b616 533d 978b 2abe 9e7e f43d a17c cc3d
00000250: d5d5 053e b6cc 45bd 8f56 a33d f615 90bc
00000260: be5b 8cbd 4ad3 2b3e 1e31 b6bd e333 dabd
00000270: bc98 4abd 4a17 1b3e 3b91 1c3e 30ef c43d
00000280: 9807 95bc f3c2 19be 63ab 26be d6e5 efbd
00000290: 6886 2b3e ee72 c13d 1497 223e 3007 bc3d
000002a0: 5578 aebd a45e db3d a62b e03d 5a8b ea3d
000002b0: 2d61 7ebc 40de e4bd 0d8c 213e f2e2 fd3d
000002c0: 0faf 903d c9d7 cbbd 2993 32bc 21e8 ec3d
000002d0: 2d7a a8bd 998d f03d af4f 95bd 35f0 543d
000002e0: bedf 32be 95a6 163e 7172 0bbe 2d3f 1fbe
000002f0: 4107 403d 3b7b 81bd 94c7 c23b 04ab 623d
00000300: 62aa 0b3e 7f79 11be e392 23be 428d d83d
00000310: 2ed4 d2bc e5e0 e13c 1f68 0cbe 6072 ce3d
00000320: 79a8 32be c227 23be e69a 57bd b2e5 143e
00000330: 54f2 1e3d fa48 133e 1f8e 9fbd e68f 103e
00000340: 6c75 1cbe bc8d c3bd 50c3 183d 20a8 f6bd
00000350: 094f cbbc 080c 33be 39f0 2f3e c13b bf3d
00000360: 691e 0abe 840c 87bd 0cfc 81bd ee87 ec3d
00000370: 5b68 e13d d99c 16be b06a 67bd 02c0 27be
00000380: 1df2 d5bd 1273 a0bd 0183 0cbe 63c8 a6bd
00000390: 64b0 2abd 70f3 0a3e 4d54 28be f5a4 24bd
000003a0: 34d8 883d b5b5 fcbd 3328 493d 689a 15bc
000003b0: b5ab 653d c48d a2bd 15f0 fb3d aa42 13be
000003c0: f490 c0bd d432 e23d 3a48 e33d 10dd 52bc
000003d0: 2f46 88bd 7872 cdbd 5a9c 193d 2256 4a3c
000003e0: 3639 413c b171 823d 715f 8ebd e60f 8f3d
000003f0: 5f77 30bd 6fde 62bd 335d f7bd a167 2dbe

linear.bias f4 [256]
0.16730165 -0.016576355 -0.036238324 -0.14196365 0.09235472 0.097964786 -0.019642707 -0.15516123
-0.13755395 -0.022082377 0.13928975 -0.016171323 -0.07466906 -0.0038957174 0.06343231 -0.061651185
0.005353598 -0.089640595 0.088927194 0.17004414 -0.07636396 0.07780759 0.17249224 0.022679323
0.06521146 0.12886053 0.011053748 -0.038070593 0.106290996 0.1489567 -0.030589972 -0.1240595
0.04998951 -0.08122496 0.14030871 0.165031 0.005284351 -0.010666482 -0.17424639 0.037898995
0.08208242 -0.026242461 0.06971008 0.08044398 0.059702504 -0.09430492 0.012009576 0.15604182
-0.16107948 0.13426328 0.12680328 -0.16787551 0.1462062 -0.1602262 -0.15334047 -0.0028418356
-0.030017659 -0.12852357 -0.09951979 -0.14190535 0.04541833 0.040208872 0.022718795 -0.1257443
-0.09320544 -0.10759936 -0.101279505 -0.16486785 -0.05431637 0.059788108 -0.101970315 -0.049360704
0.13852209 -0.077291906 0.17386702 -0.051683456 -0.11373441 -0.025589606 -0.11860724 0.14795521
0.1139345 0.022981223 0.0033586612 -0.04776555 -0.029475166 -0.006789625 -0.024574753 -0.01766623
-0.11468539 0.15805346 0.09266804 -0.0719607 -0.040886067 0.15748684 0.10739826 -0.0550056
0.0020055366 0.12844391 0.023151938 -0.16831887 -0.14917284 0.070591584 0.17650497 0.15972035
0.14739278 -0.02325722 -0.05332217 0.12432364 0.078745335 -0.09138895 -0.06470742 -0.019045928
0.043556385 -0.115993984 0.13818699 0.08311304 -0.06270454 -0.043986473 0.05587724 0.03593025
0.042697705 -0.09693212 -0.119235605 0.0858329 0.006307402 -0.12281783 -0.093776986 -0.0013567281
0.036582664 -0.017343448 0.012441728 -0.008424923 0.082903795 -0.06420054 0.0571596 0.01989325
0.09084117 -0.0011435915 -0.12843817 0.116974026 -0.025367534 0.13789602 -0.106409855 -0.11933977
-0.15006866 -0.05405251 0.17325208 -0.146683 -0.04166768 -0.13159247 -0.06266216 0.03681757
0.027626058 -0.03582147 -0.03485542 0.15237974 0.059802417 -0.035489332 0.038028806 -0.050582666
0.1737773 0.04424972 0.008973885 0.060709856 0.058774475 0.05603792 -0.14162013 0.16806202
0.13684374 -0.076583475 -0.13508864 -0.1688047 -0.075641304 0.04302449 -0.15543735 -0.15335426
-0.059979748 0.14825931 0.12387947 0.13402168 -0.14284526 0.044980653 -0.01224642 0.017235827
-0.042669006 -0.04557937 -0.03705671 0.15561232 0.008832294 0.07985633 -0.14174387 -0.17597926
-0.13032788 -0.058178835 0.05147382 0.06834946 0.10792992 0.04709708 -0.15277332 0.035040848
-0.019319018 0.022694856 -0.13190857 -0.14333574 0.02092966 0.04393874 -0.040635843 -0.1614776
-0.040030655 0.06068495 -0.16325346 -0.07485272 -0.11088555 0.080745034 -0.1747402 0.08576774
-0.039827697 -0.101654 0.15981153 0.040476315 0.08831484 0.0371511 -0.06283077 -0.0068589146
-0.015730195 0.07866039 0.04843916 -0.045533348 -0.058308773 0.079737745 -0.064904734 -0.064196475
0.038581878 0.15063362 -0.16451481 -0.11532425 -0.11360118 0.07763144 -0.06612122 0.11192496
0.08780055 0.108062245 0.15882538 -0.167293 0.12770775 -0.17059341 -0.102749296 0.12800172
-0.1696663 0.018254707 -0.1275547 -0.036883675 -0.12030571 0.11579663 -0.057421856 -0.088804334
00000000: 2051 2b3e 23cb 87bc a36e 14bd eb5e 11be
00000010: 7924 bd3d c3a1 c83d bee9 a0bc 96e2 1ebe
00000020: f1da 0cbe 1ae6 b4bc f9a1 0e3e b979 84bc
00000030: 18ec 98bd 4b4f 7fbb cde8 813d f485 7cbd
00000040: 3c6d af3b 7d95 b7bd 761f b63d 0d20 2e3e
00000050: b564 9cbd 9659 9f3d cea1 303e fdc9 b93c
00000060: 968d 853d 04f4 033e c81a 353c e9ef 1bbd
00000070: 18af d93d 1b88 183e d297 fabc e812 febd
00000080: cdc1 4c3d 4659 a6bd 16ad 0f3e e3fd 283e
00000090: 5928 ad3b 78c2 2ebc a56d 32be fa3b 1b3d
000000a0: d41a a83d 6efa d6bc 29c4 8e3d d0bf a43d
000000b0: 9d8a 743d f022 c1bd d0c3 443c 6dc9 1f3e
000000c0: 05f2 24be 507c 093e b8d8 013e 8fe7 2bbe
000000d0: 14b7 153e 5612 24be 4905 1dbe 173e 3abb
000000e0: 98e7 f5bc af9b 03be 08d1 cbbd a34f 11be
000000f0: 9208 3a3d 0fb2 243d c41c ba3c 1dc3 00be
00000100: 7ee2 bebd 0e5d dcbd a16b cfbd 1ed3 28be
00000110: d87a 5ebd 60e4 743d d0d5 d0bd 732e 4abd
00000120: bcd8 0d3e 384b 9ebd 320a 323e 08b2 53bd
00000130: 96ed e8bd 4ba1 d1bc 5ae8 f2bd 9281 173e
00000140: 7e56 e93d 1e43 bc3c fc1c 5c3b cfa5 43bd
00000150: e775 f1bc 817b debb fe50 c9bc c5b8 90bc
00000160: 2ce0 eabd c4d8 213e bec8 bd3d 2260 93bd
00000170: 2678 27bd 3b44 213e 9ef3 db3d 8d4d 61bd
00000180: 526f 033b cd86 033e 22a9 bd3c c85b 2cbe
00000190: c4c0 18be 5292 903d b8bd 343e bb8d 233e
000001a0: 22ee 163e ed85 bebc 5968 5abd 649d fe3d
000001b0: 3c45 a13d 212a bbbd 5385 84bd 3506 9cbc
000001c0: 2e68 323d 418e edbd e480 0d3e 2b37 aa3d
000001d0: 3d6b 80bd 292b 34bd 88df 643d 992b 133d
000001e0: cae3 2e3d 5984 c6bd cc31 f4bd 29c9 af3d
000001f0: 53ae ce3b ea87 fbbd 260e c0bd 3ed4 b1ba
00000200: b4d7 153d d913 8ebc 64d8 4b3c b008 0abc
00000210: 77c9 a93d 937b 83bd 2f20 6a3d 2bf7 a23c
00000220: ef0a ba3d 90e4 95ba 4c85 03be 1490 ef3d
00000230: 93cf cfbc 9d34 0d3e 69ed d9bd 6968 f4bd
00000240: 99ab 19be 2a66 5dbd fe68 313e 1134 16be
00000250: bbab 2abd 2dc0 06be 0555 80bd 05ce 163d
00000260: 0b50 e23c 89b9 12bd 8fc4 0ebd 6f09 1c3e
00000270: 61f3 743d 435d 11bd 18c4 1b3d c52f 4fbd
00000280: adf2 313e 323f 353d 3407 133c e6aa 783d
00000290: 81bd 703d 0588 653d de04 11be 7318 2c3e
000002a0: c420 0c3e ccd7 9cbd ad54 0abe 24db 2cbe
000002b0: d4e9 9abd 733a 303d f82a 1fbe e608 1dbe
000002c0: 53ad 75bd 4ad1 173e 85b4 fd3d fb3c 093e
000002d0: 0746 12be a23d 383d 35a5 48bc 2632 8d3c
000002e0: b2c5 2ebd 6fb1 3abd c7c8 17bd d658 1f3e
000002f0: 53b5 103c b78b a33d 4e25 11be e833 34be
00000300: ac74 05be ee4c 6ebd 36d6 523d cdfa 8b3d
00000310: 5d0a dd3d dee8 403d 9c70 1cbe fe86 0f3d
00000320: eb42 9ebc 90ea b93c 0a13 07be 9bc6 12be
00000330: ae74 ab3c 1cf9 333d c571 26bd 625a 25be
00000340: 2ff7 23bd c890 783d ea2b 27be 624c 99bd
00000350: f717 e3bd a75d a53d 18ef 32be ffa6 af3d
00000360: 5e22 23bd f92f d0bd a2a5 233e 7eca 253d
00000370: 69de b43d c02b 183d 6bad 80bd bfc0 e0bb
00000380: 9cdc 80bc b318 a13d 2468 463d 2d81 3abd
00000390: 2ed5 6ebd 8b4d a33d c6ec 84bd 7179 83bd
000003a0: 0808 1e3d b33f 1a3e 9276 28be 1f2f ecbd
000003b0: bca7 e8bd 3bfd 9e3d 906a 87bd ea38 e53d
000003c0: c6d0 b33d bd4f dd3d 1fa3 223e db4e 2bbe
000003d0: d2c5 023e 0ab0 2ebe 396e d2bd e212 033e
000003e0: 01bd 2dbe e58a 953c b39d 02be 5613 17bd
000003f0: d762 f6bd c926 ed3d 2e33 6bbd 0cdf b5bd
